…
,{"stream_name":"stdout","time":36.8865939,"data":" extracting: valid/labels/I__00017_JPG_jpg.rf.a749bf00eb196e9b31f901fd35be17fc.txt  \r\n"}
,{"stream_name":"stdout","time":36.886598355,"data":" extracting: valid/labels/I__00078_JPG_jpg.rf.ca873371c769c78019ffb809e13c2b47.txt  \r\n"}
,{"stream_name":"stderr","time":41.871945704,"data":"\n"}
,{"stream_name":"stderr","time":41.872003134,"data":"                   from  n    params  module                                       arguments                     \n"}
,{"stream_name":"stderr","time":41.906337706,"data":"  0                  -1  1       464  ultralytics.nn.modules.Conv                  [3, 16, 3, 2]                 \n"}
,{"stream_name":"stderr","time":41.909383287,"data":"  1                  -1  1      4672  ultralytics.nn.modules.Conv                  [16, 32, 3, 2]                \n"}
,{"stream_name":"stderr","time":41.913949206,"data":"  2                  -1  1      7360  ultralytics.nn.modules.C2f                   [32, 32, 1, True]             \n"}
,{"stream_name":"stderr","time":41.915544693,"data":"  3                  -1  1     18560  ultralytics.nn.modules.Conv                  [32, 64, 3, 2]                \n"}
,{"stream_name":"stderr","time":41.919371637,"data":"  4                  -1  2     49664  ultralytics.nn.modules.C2f                   [64, 64, 2, True]             \n"}
,{"stream_name":"stderr","time":41.922541019,"data":"  5                  -1  1     73984  ultralytics.nn.modules.Conv                  [64, 128, 3, 2]               \n"}
,{"stream_name":"stderr","time":41.927535208,"data":"  6                  -1  2    197632  ultralytics.nn.modules.C2f                   [128, 128, 2, True]           \n"}
,{"stream_name":"stderr","time":41.933173011,"data":"  7                  -1  1    295424  ultralytics.nn.modules.Conv                  [128, 256, 3, 2]              \n"}
,{"stream_name":"stderr","time":41.940794151,"data":"  8                  -1  1    460288  ultralytics.nn.modules.C2f                   [256, 256, 1, True]           \n"}
,{"stream_name":"stderr","time":41.944605099,"data":"  9                  -1  1    164608  ultralytics.nn.modules.SPPF                  [256, 256, 5]                 \n"}
,{"stream_name":"stderr","time":41.946235338,"data":" 10                  -1  1         0  torch.nn.modules.upsampling.Upsample         [None, 2, 'nearest']          \n"}
,{"stream_name":"stderr","time":41.947260595,"data":" 11             [-1, 6]  1         0  ultralytics.nn.modules.Concat                [1]                           \n"}
,{"stream_name":"stderr","time":41.952554506,"data":" 12                  -1  1    148224  ultralytics.nn.modules.C2f                   [384, 128, 1]                 \n"}
,{"stream_name":"stderr","time":41.953602968,"data":" 13                  -1  1         0  torch.nn.modules.upsampling.Upsample         [None, 2, 'nearest']          \n"}
,{"stream_name":"stderr","time":41.956726089,"data":" 14             [-1, 4]  1         0  ultralytics.nn.modules.Concat                [1]                           \n"}
,{"stream_name":"stderr","time":41.959531294,"data":" 15                  -1  1     37248  ultralytics.nn.modules.C2f                   [192, 64, 1]                  \n"}
,{"stream_name":"stderr","time":41.962817084,"data":" 16                  -1  1     36992  ultralytics.nn.modules.Conv                  [64, 64, 3, 2]                \n"}
,{"stream_name":"stderr","time":41.964955988,"data":" 17            [-1, 12]  1         0  ultralytics.nn.modules.Concat                [1]                           \n"}
,{"stream_name":"stderr","time":41.968689248,"data":" 18                  -1  1    123648  ultralytics.nn.modules.C2f                   [192, 128, 1]                 \n"}
,{"stream_name":"stderr","time":41.972557968,"data":" 19                  -1  1    147712  ultralytics.nn.modules.Conv                  [128, 128, 3, 2]              \n"}
,{"stream_name":"stderr","time":41.979717739,"data":" 20             [-1, 9]  1         0  ultralytics.nn.modules.Concat                [1]                           \n"}
,{"stream_name":"stderr","time":41.98242284,"data":" 21                  -1  1    493056  ultralytics.nn.modules.C2f                   [384, 256, 1]                 \n"}
,{"stream_name":"stderr","time":42.012690906,"data":" 22        [15, 18, 21]  1    897664  ultralytics.nn.modules.Detect                [80, [64, 128, 256]]          \n"}
,{"stream_name":"stderr","time":42.302661321,"data":"YOLOv8n summary: 225 layers, 3157200 parameters, 3157184 gradients, 8.9 GFLOPs\n"}
,{"stream_name":"stderr","time":42.304673233,"data":"\n"}
,{"stream_name":"stderr","time":42.358306994,"data":"Downloading https://github.com/ultralytics/assets/releases/download/v0.0.0/yolov8n.pt to yolov8n.pt...\n"}
,{"stream_name":"stderr","time":43.00524767,"data":"Ultralytics YOLOv8.0.96 🚀 Python-3.7.12 torch-1.13.0 CUDA:0 (Tesla P100-PCIE-16GB, 16281MiB)\n"}
…
uns/detect/train\n"}
,{"stream_name":"stderr","time":43.303594309,"data":"Downloading https://ultralytics.com/assets/Arial.ttf to /root/.config/Ultralytics/Arial.ttf...\n"}
,{"stream_name":"stderr","time":45.758331017,"data":"Overriding model.yaml nc=80 with nc=2\n"}
,{"stream_name":"stderr","time":45.761500448,"data":"\n"}
,{"stream_name":"stderr","time":45.761520912,"data":"                   from  n    params  module                                       arguments                     \n"}
,{"stream_name":"stderr","time":45.764291835,"data":"  0                  -1  1       464  ultralytics.nn.modules.Conv                  [3, 16, 3, 2]                 \n"}
,{"stream_name":"stderr","time":45.76653127,"data":"  1                  -1  1      4672  ultralytics.nn.modules.Conv                  [16, 32, 3, 2]                \n"}
,{"stream_name":"stderr","time":45.771664069,"data":"  2                  -1  1      7360  ultralytics.nn.modules.C2f                   [32, 32, 1, True]             \n"}
,{"stream_name":"stderr","time":45.773055542,"data":"  3                  -1  1     18560  ultralytics.nn.modules.Conv                  [32, 64, 3, 2]                \n"}
,{"stream_name":"stderr","time":45.783440714,"data":"  4                  -1  2     49664  ultralytics.nn.modules.C2f                   [64, 64, 2, True]             \n"}
,{"stream_name":"stderr","time":45.786011171,"data":"  5                  -1  1     73984  ultralytics.nn.modules.Conv                  [64, 128, 3, 2]               \n"}
,{"stream_name":"stderr","time":45.79165008,"data":"  6                  -1  2    197632  ultralytics.nn.modules.C2f                   [128, 128, 2, True]           \n"}
,{"stream_name":"stderr","time":45.796334133,"data":"  7                  -1  1    295424  ultralytics.nn.modules.Conv                  [128, 256, 3, 2]              \n"}
,{"stream_name":"stderr","time":45.803775711,"data":"  8                  -1  1    460288  ultralytics.nn.modules.C2f                   [256, 256, 1, True]           \n"}
,{"stream_name":"stderr","time":45.809403194,"data":"  9                  -1  1    164608  ultralytics.nn.modules.SPPF                  [256, 256, 5]                 \n"}
,{"stream_name":"stderr","time":45.810962849,"data":" 10                  -1  1         0  torch.nn.modules.upsampling.Upsample         [None, 2, 'nearest']          \n"}
,{"stream_name":"stderr","time":45.812585956,"data":" 11             [-1, 6]  1         0  ultralytics.nn.modules.Concat                [1]                           \n"}
,{"stream_name":"stderr","time":45.817289301,"data":" 12                  -1  1    148224  ultralytics.nn.modules.C2f                   [384, 128, 1]                 \n"}
,{"stream_name":"stderr","time":45.818848486,"data":" 13                  -1  1         0  torch.nn.modules.upsampling.Upsample         [None, 2, 'nearest']          \n"}
,{"stream_name":"stderr","time":45.822312453,"data":" 14             [-1, 4]  1         0  ultralytics.nn.modules.Concat                [1]                           \n"}
,{"stream_name":"stderr","time":45.824546641,"data":" 15                  -1  1     37248  ultralytics.nn.modules.C2f                   [192, 64, 1]                  \n"}
,{"stream_name":"stderr","time":45.826821843,"data":" 16                  -1  1     36992  ultralytics.nn.modules.Conv                  [64, 64, 3, 2]                \n"}
,{"stream_name":"stderr","time":45.828629184,"data":" 17            [-1, 12]  1         0  ultralytics.nn.modules.Concat                [1]                           \n"}
,{"stream_name":"stderr","time":45.832621051,"data":" 18                  -1  1    123648  ultralytics.nn.modules.C2f                   [192, 128, 1]                 \n"}
,{"stream_name":"stderr","time":45.833760369,"data":" 19                  -1  1    147712  ultralytics.nn.modules.Conv                  [128, 128, 3, 2]              \n"}
,{"stream_name":"stderr","time":45.83569252,"data":" 20             [-1, 9]  1         0  ultralytics.nn.modules.Concat                [1]                           \n"}
,{"stream_name":"stderr","time":45.844105337,"data":" 21                  -1  1    493056  ultralytics.nn.modules.C2f                   [384, 256, 1]                 \n"}
,{"stream_name":"stderr","time":45.85800374,"data":" 22        [15, 18, 21]  1    751702  ultralytics.nn.modules.Detect                [2, [64, 128, 256]]           \n"}
,{"stream_name":"stderr","time":45.994094326,"data":"Model summary: 225 layers, 3011238 parameters, 3011222 gradients, 8.2 GFLOPs\n"}
,{"stream_name":"stderr","time":45.996258295,"data":"\n"}
,{"stream_name":"stderr","time":46.019025473,"data":"Transferred 319/355 items from pretrained weights\n"}
,{"stream_name":"stderr","time":52.74544905,"data":"\u001b[34m\u001b[1mTensorBoard: \u001b[0mStart with 'tensorboard --logdir runs/detect/train', view at http://localhost:6006/\n"}
…
